…
_parameters: {}
_buffers: {}
_non_persistent_buffers_set: set()
_backward_pre_hooks: OrderedDict()
_backward_hooks: OrderedDict()
_is_full_backward_hook: None
_forward_hooks: OrderedDict()
_forward_hooks_with_kwargs: OrderedDict()
_forward_hooks_always_called: OrderedDict()
_forward_pre_hooks: OrderedDict()
_forward_pre_hooks_with_kwargs: OrderedDict()
_state_dict_hooks: OrderedDict()
_state_dict_pre_hooks: OrderedDict()
_load_state_dict_pre_hooks: OrderedDict()
_load_state_dict_post_hooks: OrderedDict()
_modules: {'activation_first_conv': ZiLU(
  (arctan): ArcTan()
), 'first_conv': Sequential(
  (0): Conv2d(3, 64, kernel_size=(7, 7), stride=(2, 2), padding=(3, 3), bias=False)
  (1): BatchNorm2d(64, eps=1e-05, momentum=0.1, affine=True, track_running_stats=True)
  (2): ZiLU(
    (arctan): ArcTan()
  )
  (3): MaxPool2d(kernel_size=3, stride=2, padding=1, dilation=1, ceil_mode=False)
), 'layer1': Sequential(
  (0): ResBlock(
    (activation1): ZiLU(
      (arctan): ArcTan()
    )
    (final_activation): ZiLU(
      (arctan): ArcTan()
    )
    (layer1): Sequential(
      (0): Conv2d(64, 64, kernel_size=(3, 3), stride=(1, 1), padding=(1, 1), bias=False)
      (1): BatchNorm2d(64, eps=1e-05, momentum=0.1, affine=True, track_running_stats=True)
      (2): ZiLU(
        (arctan): ArcTan()
      )
    )
    (layer2): Sequential(
      (0): Conv2d(64, 64, kernel_size=(3, 3), stride=(1, 1), padding=(1, 1), bias=False)
      (1): BatchNorm2d(64, eps=1e-05, momentum=0.1, affine=True, track_running_stats=True)
    )
    (identity): Identity()
  )
  (1): ResBlock(
    (activation1): ZiLU(
      (arctan): ArcTan()
    )
    (final_activation): ZiLU(
      (arctan): ArcTan()
    )
    (layer1): Sequential(
      (0): Conv2d(64, 64, kernel_size=(3, 3), stride=(1, 1), padding=(1, 1), bias=False)
      (1): BatchNorm2d(64, eps=1e-05, momentum=0.1, affine=True, track_running_stats=True)
      (2): ZiLU(
        (arctan): ArcTan()
      )
    )
    (layer2): Sequential(
      (0): Conv2d(64, 64, kernel_size=(3, 3), stride=(1, 1), padding=(1, 1), bias=False)
      (1): BatchNorm2d(64, eps=1e-05, momentum=0.1, affine=True, track_running_stats=True)
    )
    (identity): Identity()
  )
  (2): ResBlock(
    (activation1): ZiLU(
      (arctan): ArcTan()
    )
    (final_activation): ZiLU(
      (arctan): ArcTan()
    )
    (layer1): Sequential(
      (0): Conv2d(64, 64, kernel_size=(3, 3), stride=(1, 1), padding=(1, 1), bias=False)
      (1): BatchNorm2d(64, eps=1e-05, momentum=0.1, affine=True, track_running_stats=True)
      (2): ZiLU(
        (arctan): ArcTan()
      )
    )
    (layer2): Sequential(
      (0): Conv2d(64, 64, kernel_size=(3, 3), stride=(1, 1), padding=(1, 1), bias=False)
      (1): BatchNorm2d(64, eps=1e-05, momentum=0.1, affine=True, track_running_stats=True)
    )
    (identity): Identity()
  )
), 'layer2': Sequential(
  (0): ResBlock(
    (activation1): ZiLU(
      (arctan): ArcTan()
    )
    (final_activation): ZiLU(
      (arctan): ArcTan()
    )
    (layer1): Sequential(
      (0): Conv2d(64, 128, kernel_size=(3, 3), stride=(2, 2), padding=(1, 1), bias=False)
      (1): BatchNorm2d(128, eps=1e-05, momentum=0.1, affine=True, track_running_stats=True)
      (2): ZiLU(
        (arctan): ArcTan()
      )
    )
    (layer2): Sequential(
      (0): Conv2d(128, 128, kernel_size=(3, 3), stride=(1, 1), padding=(1, 1), bias=False)
      (1): BatchNorm2d(128, eps=1e-05, momentum=0.1, affine=True, track_running_stats=True)
    )
    (identity): Sequential(
      (0): Conv2d(64, 128, kernel_size=(1, 1), stride=(2, 2), bias=False)
      (1): BatchNorm2d(128, eps=1e-05, momentum=0.1, affine=True, track_running_stats=True)
    )
  )
  (1): ResBlock(
    (activation1): ZiLU(
      (arctan): ArcTan()
    )
    (final_activation): ZiLU(
      (arctan): ArcTan()
    )
    (layer1): Sequential(
      (0): Conv2d(128, 128, kernel_size=(3, 3), stride=(1, 1), padding=(1, 1), bias=False)
      (1): BatchNorm2d(128, eps=1e-05, momentum=0.1, affine=True, track_running_stats=True)
      (2): ZiLU(
        (arctan): ArcTan()
      )
    )
    (layer2): Sequential(
      (0): Conv2d(128, 128, kernel_size=(3, 3), stride=(1, 1), padding=(1, 1), bias=False)
      (1): BatchNorm2d(128, eps=1e-05, momentum=0.1, affine=True, track_running_stats=True)
    )
    (identity): Identity()
  )
  (2): ResBlock(
    (activation1): ZiLU(
      (arctan): ArcTan()
    )
    (final_activation): ZiLU(
      (arctan): ArcTan()
    )
    (layer1): Sequential(
      (0): Conv2d(128, 128, kernel_size=(3, 3), stride=(1, 1), padding=(1, 1), bias=False)
      (1): BatchNorm2d(128, eps=1e-05, momentum=0.1, affine=True, track_running_stats=True)
      (2): ZiLU(
        (arctan): ArcTan()
      )
    )
    (layer2): Sequential(
      (0): Conv2d(128, 128, kernel_size=(3, 3), stride=(1, 1), padding=(1, 1), bias=False)
      (1): BatchNorm2d(128, eps=1e-05, momentum=0.1, affine=True, track_running_stats=True)
    )
    (identity): Identity()
  )
  (3): ResBlock(
    (activation1): ZiLU(
      (arctan): ArcTan()
    )
    (final_activation): ZiLU(
      (arctan): ArcTan()
    )
    (layer1): Sequential(
      (0): Conv2d(128, 128, kernel_size=(3, 3), stride=(1, 1), padding=(1, 1), bias=False)
      (1): BatchNorm2d(128, eps=1e-05, momentum=0.1, affine=True, track_running_stats=True)
      (2): ZiLU(
        (arctan): ArcTan()
      )
    )
    (layer2): Sequential(
      (0): Conv2d(128, 128, kernel_size=(3, 3), stride=(1, 1), padding=(1, 1), bias=False)
      (1): BatchNorm2d(128, eps=1e-05, momentum=0.1, affine=True, track_running_stats=True)
    )
    (identity): Identity()
  )
), 'layer3': Sequential(
  (0): ResBlock(
    (activation1): ZiLU(
      (arctan): ArcTan()
    )
    (final_activation): ZiLU(
      (arctan): ArcTan()
    )
    (layer1): Sequential(
      (0): Conv2d(128, 256, kernel_size=(3, 3), stride=(2, 2), padding=(1, 1), bias=False)
      (1): BatchNorm2d(256, eps=1e-05, momentum=0.1, affine=True, track_running_stats=True)
      (2): ZiLU(
        (arctan): ArcTan()
      )
    )
    (layer2): Sequential(
      (0): Conv2d(256, 256, kernel_size=(3, 3), stride=(1, 1), padding=(1, 1), bias=False)
      (1): BatchNorm2d(256, eps=1e-05, momentum=0.1, affine=True, track_running_stats=True)
    )
    (identity): Sequential(
      (0): Conv2d(128, 256, kernel_size=(1, 1), stride=(2, 2), bias=False)
      (1): BatchNorm2d(256, eps=1e-05, momentum=0.1, affine=True, track_running_stats=True)
    )
  )
  (1): ResBlock(
    (activation1): ZiLU(
      (arctan): ArcTan()
    )
    (final_activation): ZiLU(
      (arctan): ArcTan()
    )
    (layer1): Sequential(
      (0): Conv2d(256, 256, kernel_size=(3, 3), stride=(1, 1), padding=(1, 1), bias=False)
      (1): BatchNorm2d(256, eps=1e-05, momentum=0.1, affine=True, track_running_stats=True)
      (2): ZiLU(
        (arctan): ArcTan()
      )
    )
    (layer2): Sequential(
      (0): Conv2d(256, 256, kernel_size=(3, 3), stride=(1, 1), padding=(1, 1), bias=False)
      (1): BatchNorm2d(256, eps=1e-05, momentum=0.1, affine=True, track_running_stats=True)
    )
    (identity): Identity()
  )
  (2): ResBlock(
    (activation1): ZiLU(
      (arctan): ArcTan()
    )
    (final_activation): ZiLU(
      (arctan): ArcTan()
    )
    (layer1): Sequential(
      (0): Conv2d(256, 256, kernel_size=(3, 3), stride=(1, 1), padding=(1, 1), bias=False)
      (1): BatchNorm2d(256, eps=1e-05, momentum=0.1, affine=True, track_running_stats=True)
      (2): ZiLU(
        (arctan): ArcTan()
      )
    )
    (layer2): Sequential(
      (0): Conv2d(256, 256, kernel_size=(3, 3), stride=(1, 1), padding=(1, 1), bias=False)
      (1): BatchNorm2d(256, eps=1e-05, momentum=0.1, affine=True, track_running_stats=True)
    )
    (identity): Identity()
  )
  (3): ResBlock(
    (activation1): ZiLU(
      (arctan): ArcTan()
    )
    (final_activation): ZiLU(
      (arctan): ArcTan()
    )
    (layer1): Sequential(
      (0): Conv2d(256, 256, kernel_size=(3, 3), stride=(1, 1), padding=(1, 1), bias=False)
      (1): BatchNorm2d(256, eps=1e-05, momentum=0.1, affine=True, track_running_stats=True)
      (2): ZiLU(
        (arctan): ArcTan()
      )
    )
    (layer2): Sequential(
      (0): Conv2d(256, 256, kernel_size=(3, 3), stride=(1, 1), padding=(1, 1), bias=False)
      (1): BatchNorm2d(256, eps=1e-05, momentum=0.1, affine=True, track_running_stats=True)
    )
    (identity): Identity()
  )
  (4): ResBlock(
    (activation1): ZiLU(
      (arctan): ArcTan()
    )
    (final_activation): ZiLU(
      (arctan): ArcTan()
    )
    (layer1): Sequential(
      (0): Conv2d(256, 256, kernel_size=(3, 3), stride=(1, 1), padding=(1, 1), bias=False)
      (1): BatchNorm2d(256, eps=1e-05, momentum=0.1, affine=True, track_running_stats=True)
      (2): ZiLU(
        (arctan): ArcTan()
      )
    )
    (layer2): Sequential(
      (0): Conv2d(256, 256, kernel_size=(3, 3), stride=(1, 1), padding=(1, 1), bias=False)
      (1): BatchNorm2d(256, eps=1e-05, momentum=0.1, affine=True, track_running_stats=True)
    )
    (identity): Identity()
  )
  (5): ResBlock(
    (activation1): ZiLU(
      (arctan): ArcTan()
    )
    (final_activation): ZiLU(
      (arctan): ArcTan()
    )
    (layer1): Sequential(
      (0): Conv2d(256, 256, kernel_size=(3, 3), stride=(1, 1), padding=(1, 1), bias=False)
      (1): BatchNorm2d(256, eps=1e-05, momentum=0.1, affine=True, track_running_stats=True)
      (2): ZiLU(
        (arctan): ArcTan()
      )
    )
    (layer2): Sequential(
      (0): Conv2d(256, 256, kernel_size=(3, 3), stride=(1, 1), padding=(1, 1), bias=False)
      (1): BatchNorm2d(256, eps=1e-05, momentum=0.1, affine=True, track_running_stats=True)
    )
    (identity): Identity()
  )
), 'layer4': Sequential(
  (0): ResBlock(
    (activation1): ZiLU(
      (arctan): ArcTan()
    )
    (final_activation): ZiLU(
      (arctan): ArcTan()
    )
    (layer1): Sequential(
      (0): Conv2d(256, 512, kernel_size=(3, 3), stride=(2, 2), padding=(1, 1), bias=False)
      (1): BatchNorm2d(512, eps=1e-05, momentum=0.1, affine=True, track_running_stats=True)
      (2): ZiLU(
        (arctan): ArcTan()
      )
    )
    (layer2): Sequential(
      (0): Conv2d(512, 512, kernel_size=(3, 3), stride=(1, 1), padding=(1, 1), bias=False)
      (1): BatchNorm2d(512, eps=1e-05, momentum=0.1, affine=True, track_running_stats=True)
    )
    (identity): Sequential(
      (0): Conv2d(256, 512, kernel_size=(1, 1), stride=(2, 2), bias=False)
      (1): BatchNorm2d(512, eps=1e-05, momentum=0.1, affine=True, track_running_stats=True)
    )
  )
  (1): ResBlock(
    (activation1): ZiLU(
      (arctan): ArcTan()
    )
    (final_activation): ZiLU(
      (arctan): ArcTan()
    )
    (layer1): Sequential(
      (0): Conv2d(512, 512, kernel_size=(3, 3), stride=(1, 1), padding=(1, 1), bias=False)
      (1): BatchNorm2d(512, eps=1e-05, momentum=0.1, affine=True, track_running_stats=True)
      (2): ZiLU(
        (arctan): ArcTan()
      )
    )
    (layer2): Sequential(
      (0): Conv2d(512, 512, kernel_size=(3, 3), stride=(1, 1), padding=(1, 1), bias=False)
      (1): BatchNorm2d(512, eps=1e-05, momentum=0.1, affine=True, track_running_stats=True)
    )
    (identity): Identity()
  )
  (2): ResBlock(
    (activation1): ZiLU(
      (arctan): ArcTan()
    )
    (final_activation): ZiLU(
      (arctan): ArcTan()
    )
    (layer1): Sequential(
      (0): Conv2d(512, 512, kernel_size=(3, 3), stride=(1, 1), padding=(1, 1), bias=False)
      (1): BatchNorm2d(512, eps=1e-05, momentum=0.1, affine=True, track_running_stats=True)
      (2): ZiLU(
        (arctan): ArcTan()
      )
    )
    (layer2): Sequential(
      (0): Conv2d(512, 512, kernel_size=(3, 3), stride=(1, 1), padding=(1, 1), bias=False)
      (1): BatchNorm2d(512, eps=1e-05, momentum=0.1, affine=True, track_running_stats=True)
    )
    (identity): Identity()
  )
), 'classifier': Sequential(
  (0): AdaptiveAvgPool2d(output_size=(1, 1))
  (1): Flatten(start_dim=1, end_dim=-1)
  (2): Linear(in_features=512, out_features=10, bias=True)
)}
args: Namespace(activation='zilu', sigma=10.0, inplace=True, model='resnet34', dataset='cifar10', resize=None, augment=True, noise=0.0, data_path='./Data', compile=False, compile_mode='default', batch_size=128, num_epochs=200, use_amp=False, clip_grad_norm=1.0, num_workers=4, persistent_workers=False, prefetch_factor=None, pin_memory=False, criterion
…
